…
000000.0, momentum=0.9, only_load_backbone=False, optimizer='adam', pretrain='/home/dell/xp_workspace/sign-lang/dynamic_attn/log/reimp-conv/pretrain/ep.pkl', print_step=100, reset_lr=False, save_interval_updates=100, seed=8, stage_epoch=100, task='train_v11_rf10', update_param='all', update_step=1, valid_batch_size=1, video_path='/home/dell/xp_workspace/data/fullFrame-210x260px', vocab_file='Data/slr-phoenix14/newtrainingClasses.txt', weight_decay=0.0001)
10-06 09:53:12: [DATASET: train]: total 5671 samples.
10-06 09:53:12: [DATASET: dev]: total 540 samples.
10-06 09:53:12: MainStream(
  (conv): Conv2d(3, 32, kernel_size=(3, 3), stride=(1, 1), padding=(1, 1), bias=False)
  (bn): BatchNorm2d(32, eps=1e-05, momentum=0.1, affine=True, track_running_stats=True)
  (relu): ReLU(inplace)
  (pool): MaxPool2d(kernel_size=2, stride=2, padding=0, dilation=1, ceil_mode=False)
  (layers): Sequential(
    (0): BasicBlock(
      (conv1): Conv2d(32, 64, kernel_size=(3, 3), stride=(1, 1), padding=(1, 1), bias=False)
      (bn1): BatchNorm2d(64, eps=1e-05, momentum=0.1, affine=True, track_running_stats=True)
      (relu): ReLU(inplace)
      (pool): MaxPool2d(kernel_size=2, stride=2, padding=0, dilation=1, ceil_mode=False)
      (conv2): Conv2d(64, 64, kernel_size=(3, 3), stride=(1, 1), padding=(1, 1), bias=False)
      (bn2): BatchNorm2d(64, eps=1e-05, momentum=0.1, affine=True, track_running_stats=True)
    )
    (1): BasicBlock(
      (conv1): Conv2d(64, 128, kernel_size=(3, 3), stride=(1, 1), padding=(1, 1), bias=False)
      (bn1): BatchNorm2d(128, eps=1e-05, momentum=0.1, affine=True, track_running_stats=True)
      (relu): ReLU(inplace)
      (pool): MaxPool2d(kernel_size=2, stride=2, padding=0, dilation=1, ceil_mode=False)
      (conv2): Conv2d(128, 128, kernel_size=(3, 3), stride=(1, 1), padding=(1, 1), bias=False)
      (bn2): BatchNorm2d(128, eps=1e-05, momentum=0.1, affine=True, track_running_stats=True)
    )
    (2): BasicBlock(
      (conv1): Conv2d(128, 256, kernel_size=(3, 3), stride=(1, 1), padding=(1, 1), bias=False)
      (bn1): BatchNorm2d(256, eps=1e-05, momentum=0.1, affine=True, track_running_stats=True)
      (relu): ReLU(inplace)
      (pool): MaxPool2d(kernel_size=2, stride=2, padding=0, dilation=1, ceil_mode=False)
      (conv2): Conv2d(256, 256, kernel_size=(3, 3), stride=(1, 1), padding=(1, 1), bias=False)
      (bn2): BatchNorm2d(256, eps=1e-05, momentum=0.1, affine=True, track_running_stats=True)
    )
    (3): BasicBlock(
      (conv1): Conv2d(256, 512, kernel_size=(3, 3), stride=(1, 1), padding=(1, 1), bias=False)
      (bn1): BatchNorm2d(512, eps=1e-05, momentum=0.1, affine=True, track_running_stats=True)
      (relu): ReLU(inplace)
      (pool): MaxPool2d(kernel_size=2, stride=2, padding=0, dilation=1, ceil_mode=False)
      (conv2): Conv2d(512, 512, kernel_size=(3, 3), stride=(1, 1), padding=(1, 1), bias=False)
      (bn2): BatchNorm2d(512, eps=1e-05, momentum=0.1, affine=True, track_running_stats=True)
    )
  )
  (avgpool): AdaptiveAvgPool2d(output_size=1)
  (tcna): TemporalAttention3(
    (relu): ReLU()
    (rnn): GRU(512, 512)
    (pool): AdaptiveAvgPool1d(output_size=1)
  )
  (enc1_conv1): Conv1d(512, 512, kernel_size=(5,), stride=(1,), padding=(2,))
  (enc1_bn1): BatchNorm1d(512, eps=1e-05, momentum=0.1, affine=True, track_running_stats=True)
  (enc1_pool1): MaxPool1d(kernel_size=2, stride=2, padding=0, dilation=1, ceil_mode=False)
  (enc1_conv2): Conv1d(512, 512, kernel_size=(5,), stride=(1,), padding=(2,))
  (enc1_bn2): BatchNorm1d(512, eps=1e-05, momentum=0.1, affine=True, track_running_stats=True)
  (enc1_pool2): MaxPool1d(kernel_size=2, stride=2, padding=0, dilation=1, ceil_mode=False)
  (tcna2): TemporalAttention3(
    (relu): ReLU()
    (rnn): GRU(512, 512)
    (pool): AdaptiveAvgPool1d(output_size=1)
  )
  (enc2_conv): Conv1d(512, 1024, kernel_size=(3,), stride=(1,), padding=(1,))
  (enc2_bn): BatchNorm1d(1024, eps=1e-05, momentum=0.1, affine=True, track_running_stats=True)
  (fc): Linear(in_features=1024, out_features=1237, bias=True)
)
10-06 09:53:19: No checkpoint file in found in /home/dell/xp_workspace/sign-lang/dynamic_attn/log/reimp-conv/ep.pkl
10-06 09:53:19: | num. module params: 13325173 (num. trained: 13325173)
10-06 09:53:19: lr: 0.000100
10-06 09:53:19: lr: 0.000100
10-06 09:54:06: Epoch: 1, num_updates: 100, loss: 91.986, lr: 0.0001, 0.0001
10-06 09:54:51: Epoch: 1, num_updates: 200, loss: 100.011, lr: 0.0001, 0.0001
…
